model/model.pth (torch, 17609 bytes, 4 tensors)

linear1.weight f4 [256, 11]
00000000: ff72 c23e 1668 313e d577 19bf 293c 903d
00000010: d83e 313e ed4a 903d 94f0 99bd 65dc 2fbc
00000020: 4071 4bbe 469f 8e3e 1514 113e 5cbf 873e
00000030: 093c 62bd 747d ac3e 80f6 8fbd 8356 033e
00000040: 2113 2a3c 2b04 7c3d f5c8 b63e 06e7 3c3e
00000050: c1bb 4d3e add0 ae3e 46d8 b03e 79bb a23e
00000060: 2143 e6be 0455 1b3e 65bd db3b 6abf 973e
00000070: 3cb0 0bbe 14cc 823e 1fa5 1c3d 5b26 61be
00000080: f193 683e 2c39 3dbe 0a83 713e b6f4 c1bd
00000090: 1c8e 66be f749 1ebe 7965 ae3d 6d59 ea3d
000000a0: 5815 3fbd bad1 a83d 0e6b 65be 12fb 03be
000000b0: 5f2b 87be 025a b93d e97c 9e3d c8a0 923e
000000c0: 81e5 96be 5454 7cbe 9c30 98be ea90 203e
000000d0: c707 f73d a49e f6be 7bfe 82be b357 3dbe
000000e0: cbbc 0f3f 9175 95be 70bd 89bd f219 653d
000000f0: 8de7 ee3d c39a 3a3e c8ca 6fbe 64e4 0cbe
00000100: 1a99 31bd a00b c13d 684e ed3e 3eda 0bbe
00000110: 0f1f 4ebe 26d9 4d3d 21d5 5fbe 26bd 7e3e
00000120: 6ae3 cc3c e876 3dbd 11d0 823e f424 4ebe
00000130: cbfc 05bd 870f e93e 6ebd bdbc a19f bdbd
00000140: 6d4a 87bd 4d7d 8fbe 7eae bc3d ef1b 603e
00000150: 8608 b73e 5f18 023f 96bc 0e3e fe88 303d
00000160: 57b2 e4be a8eb efbe 23a5 d33d 12a8 b83e
00000170: 21e8 b13e e078 b93e 0390 893e d4f7 113e
00000180: 7ff3 e53d b8eb a73d a3f3 65bd f7db 733d
00000190: 5c24 a1bd f8de 43be d172 edbc 9a0c 7fbe
000001a0: 79ad 50bc 15f9 d4bd a3c8 cabb 6cc3 82be
000001b0: bc09 22bc 19bc 9bbd 9f0a e53e 9ba1 0d3f
000001c0: 10ef 37be ad87 d63d ecf9 c33d 410f 38be
000001d0: d8d5 893d dce8 83be a623 893d 2d80 dfbc
000001e0: f5d8 75be 504f 9abd f2f5 e2be 8cef e63d
000001f0: 55b7 92be 90b0 223e e05d 8c3e c1d6 2dbe
00000200: 4a9f a0bb c542 803e b6ab ccbd 12dd a33e
00000210: f33c e13e aaf6 ee3b d57d e4bd fda0 d2bd
00000220: 7f14 323e 5c8e ba3e 2963 aebe 2d8a 533e
00000230: 1f6a 0cbe 26a4 8dbe 6628 45be acf8 7dbe
00000240: 611c 153f ff4c d53e 37ca f6bd 5d83 a43d
00000250: ea32 333e ead3 2b3e da1a d63e 83ae 2a3e
00000260: d226 b83d ea32 203e 44ac 61be 5be9 2bbb
00000270: 343a 0f3e 7288 4bbe 9bfd 823e a0f3 823e
00000280: 758b 04be 6c06 91be 8822 253e f42d fe3d
00000290: cfd6 bfbe 2656 adbe f48c 57be 44cd ca3e
000002a0: 9edc 95bd a9b0 043e 1059 0ebe f7b3 0cbe
000002b0: 5ff0 7f3e d468 b73e 7a77 b53d 9f36 65bc
000002c0: 9777 263c 4dcc 8b3e dc31 043f ee29 583d
000002d0: 31ae 53be 2d8c 253e e5cc 9b3e d6a6 cf3d
000002e0: 390f cebc 5bb5 043e 47cc 9c3e e892 43be
000002f0: 4621 e0bd cccc 443e 37ba 503e 2c75 82bb
00000300: d84f aebe a11f 16be 7371 bbbe 8f9b 5abe
00000310: f1a7 f53d f1ec 45bd 3e38 f6be 2c00 98be
00000320: 08fc 0f3f 13f1 7c3d c3ad 783e bd12 6abc
00000330: 4781 5f3e f8a8 2dbe 25fa 363e 233c cb3c
00000340: 05a5 4fbe 367e 543e dce7 4b3e e30e 91be
00000350: 0594 173e 54b5 acbe fb12 14be cdf5 f33d
00000360: 9928 9ebe cd44 4ebe 78ee 6cbe ccfd 003e
00000370: aaaf ccbd db9e 93be 496a f63e d1fb dc3e
00000380: 8779 823e af29 2f3e cd7a 6bbe 786b f7bd
00000390: 5e13 243d 0b99 813d a0ee a2be 62f7 c4be
000003a0: dc49 d83e 5dfb c8bd 5560 a9bc 0e3e 75bd
000003b0: aea1 aabc b7e2 173e de45 bebe be98 32be
000003c0: f1ed 823c 5bd6 d03b 361b 033d b118 ce3e
000003d0: b1ff 6e3e 4791 783c 5c84 42be 796a 2abd
000003e0: f775 68be e7ed 8e3e 0849 143e 88fb 1e3e
000003f0: db73 efbd d78b d03e 2a92 d8be 246f 0b3f
0.3797836 0.17324862 -0.59948474 0.07042725 0.17309129 0.07045541 -0.0751659 -0.0107336985
-0.1986742 0.2785589 0.14167817 0.26513183 -0.055233035 0.33689463 -0.07029438 0.1282597
0.010380537 0.061527412 0.35700193 0.18447503 0.20091154 0.34143582 0.34540004 0.31783655
-0.4497309 0.1516915 0.006705927 0.29638225 -0.13641447 0.25546324 0.03824341 -0.21987288
0.22712685 -0.1847884 0.23585144 -0.09470503 -0.22515148 -0.15457903 0.08515448 0.11442838
-0.046651214 0.08243127 -0.2240412 -0.12888744 -0.26400277 0.09050371 0.077386685 0.2863829
-0.29471973 -0.24641544 -0.29724586 0.1568028 0.1206203 -0.48167908 -0.25584778 -0.18490486
0.5614745 -0.2919126 -0.067255855 0.055932947 0.116652586 0.182231 -0.23417199 -0.13758999
-0.0433589 0.094260454 0.46348882 -0.13657472 -0.20129035 0.050255917 -0.21858646 0.24876842
0.025010783 -0.046255976 0.25549367 -0.20131284 -0.032711785 0.4551966 -0.023161616 -0.092589624
-0.066059925 -0.28025284 0.09212969 0.21885656 0.3574869 0.5081844 0.13939127 0.043099396
-0.44667313 -0.4685948 0.10334232 0.36065727 0.34747413 0.36225033 0.26867685 0.14254695
0.11228084 0.08199257 -0.056140553 0.059535947 -0.07868263 -0.19128025 -0.028985413 -0.24907151
-0.012736672 -0.10399071 -0.0061884685 -0.2553972 -0.009890016 -0.07604236 0.44734666 0.55324715
-0.17962289 0.10475097 0.09569153 -0.17974569 0.067302406 -0.25763595 0.066962525 -0.027282799
-0.24008544 -0.07534659 -0.44328266 0.11276159 -0.28655496 0.15887666 0.2741537 -0.16976453
-0.0049018012 0.2505094 -0.09993689 0.320046 0.43991813 0.0072925882 -0.11156813 -0.10284612
0.17390631 0.36436737 -0.34060028 0.20658179 -0.13712357 -0.27664298 -0.19253692 -0.24801892
0.5824643 0.41660306 -0.12050288 0.08032868 0.17499891 0.16780058 0.4181736 0.16668133
0.089917794 0.15644422 -0.2203837 -0.002623162 0.13987046 -0.19876269 0.2558411 0.25576496
-0.12943824 -0.28325212 0.16126454 0.124111086 -0.37468573 -0.3385479 -0.21049863 0.3960973
-0.0731747 0.12958016 -0.13901162 -0.13740526 0.24994038 0.35822165 0.08860679 -0.013990073
0.010160348 0.27304307 0.5163858 0.052774362 -0.20671917 0.16166754 0.3042976 0.10139243
-0.025153743 0.12959807 0.306246 -0.19099009 -0.109438464 0.19218749 0.20383535 -0.003981253
-0.3404529 -0.14660503 -0.36609992 -0.21348403 0.11994923 -0.048321668 -0.48089784 -0.2968763
0.56243944 0.061753344 0.24285035 -0.014286694 0.21826659 -0.16958988 0.1786886 0.024808949
-0.20277794 0.2075127 0.19912666 -0.2833167 0.14802559 -0.33732092 -0.14460365 0.11912117
-0.3089035 -0.20143433 -0.23137844 0.12596816 -0.09994443 -0.28832135 0.48127964 0.4316087
0.25483343 0.17105745 -0.22996064 -0.12081045 0.040057532 0.06328019 -0.3182268 -0.38469988
0.4224385 -0.09813569 -0.020675818 -0.059873633 -0.020829048 0.14832579 -0.3716268 -0.17441079
0.0159826 0.0063732094 0.032008372 0.40253213 0.23339726 0.015171356 -0.18995804 -0.041605446
-0.2270125 0.2791588 0.14480984 0.15525639 -0.116920196 0.4073169 -0.42299014 0.5446646

linear1.bias f4 [256]
00000000: ee46 423e c258 75be 28ba b4bd 3136 ee3d
00000010: 5eab 3ebd 8793 843e bb03 86bd 2c18 79be
00000020: eed5 f6bd daf7 d7bd 7b0d 483e 7856 3abe
00000030: 74b2 f0bd 1264 87be 5ff5 ee3c b70e e33d
00000040: f928 35be 2744 5b3e edcc bf3e 90a5 e13c
00000050: 24ec 373e f40a aa3e e31e 983e d1ac 153d
00000060: 41c2 92be e80b 1a3e 43b4 39be 114c eabd
00000070: aae9 c0be c5d7 813e ebdd 11be ae9b afbe
00000080: 37ed 83bc 9375 08bc 0032 40bd c185 233e
00000090: 5be2 41bc f609 a73d a087 923e 153d fa3d
000000a0: 71cb 233e fd70 06bd 7cc3 c03d ebc0 13be
000000b0: 7fea 833e ebdc 65be a8bd b4bd e19b 75be
000000c0: fb1a e63d e7b5 3a3d 3142 413c b21b 4c3e
000000d0: 4971 8cbc cb18 573e c43a 5bbe cecb 0e3e
000000e0: 6881 503e 75da 933b 1dc1 ddbd 828e a6bb
000000f0: 0f95 993d 88e8 c73d 0dd2 33bd e83c ce3d
00000100: 9271 31be 09a3 a33d 698d 003e f525 20bd
00000110: 2663 b0bc bded dbbd 6fae fa3d d7d7 b1bd
00000120: f32b 15be 1b88 993e 072a 2dbe bbfc a73d
00000130: 71a4 443d 76f6 843e a637 e0bc fc35 8a3e
00000140: d1f9 d6bc 52e6 803d ec99 373e f6c2 c7bd
00000150: 47e9 32be 7ea3 e63e de96 053e 0711 84bc
00000160: 9d0d b53d 7fb5 4ebe 140c d5bd fdbd 843e
00000170: 7362 4f3d 5232 34be 933f 433e c05d da3d
00000180: baff 3cbe b320 9f3d f27f b83d fe67 c03d
00000190: 7eb6 61be 3c16 7fbd eb5f 56be ba2e edbd
000001a0: 3821 12be 972f b53c e2ab cfbc 98e3 a43d
000001b0: 7f19 9cbd 1734 5a3e 9bc5 e83c 19b2 41be
000001c0: 28ad 8dbe 6d9a 54be 8e6c a2bc b405 52bb
000001d0: e6fa b3be 4eae 0dbd 5669 a23e f09d b9be
000001e0: 7127 d4bd 1dfd 443e 77cc 76bd bbab 09be
000001f0: 83e7 20be 4ff0 5d3d 645e e53d 3ef9 463c
00000200: f7cc 29be c1e4 293e 8985 453d 2498 f5bd
00000210: 072a d6bd 5afa 5c3e b2ff 673d b966 023e
00000220: 4989 f3bd 7cd6 6a3e 17dc 89bd 2be9 28be
00000230: 79dc 063d 098b 1abd eb06 643d b631 04be
00000240: 61b2 94be 5128 acbd 2fa2 31bc 1bff 7dbe
00000250: 24b3 843e 75df 493e 7656 14be 8fcb 00be
00000260: a7ca aebe 5077 013e c811 33be d85a c53e
00000270: b1e2 74be cfb0 e43d e827 31be d0b1 ebbd
00000280: 6cb7 73be de15 373d c5ae 6ebe a739 1b3e
00000290: ba40 38bb 6b23 19be 6c01 f7bd e3e1 c93d
000002a0: aea0 ba3e aed8 f5ba 6a97 b3bd 496d 863c
000002b0: 0913 6f3d fed4 333e cb09 a5bd b6ee cd3d
000002c0: 3979 a63d d930 46bd 5438 0fbd d2da 1dbe
000002d0: 284a 783e 27b7 0b3d ee0a 84bc 011a d53c
000002e0: 1007 d9bd 63e0 e43e fc72 83be 7a24 bcbd
000002f0: 261e 30be 72e0 423e 79c8 703d c147 4bbd
00000300: 1a86 26be 003b ecbd 50bd 1e3e b39c bdbc
00000310: 0623 c63e 0022 803d 5581 ddbd 58e1 8a3c
00000320: cbe4 34be cf30 5dbe ea0f 90be 2caa c5bc
00000330: 8582 d03d a206 ce3d e403 4f3e 2a60 3abe
00000340: fc1e 43be 10b1 81bc 0a19 81bc a25f 943e
00000350: 3e5d babe 377f 39bd bf9d 0c3e 4a98 5ebe
00000360: dfe6 3fbd c1de dc3d 0535 513c 7795 9f3e
00000370: f46c 5fbe 5fc0 edbd 01a5 a23d 14ff a8bd
00000380: c41b ecbd e9c5 b13d b9ec 3cbe 0efb 1e3e
00000390: d327 a53e 5c42 7ebe 85ee 72bd 2e00 c43e
000003a0: a3b2 80be be34 983b c6d8 afbe 35bb 0c3e
000003b0: cb15 98bd 3ca9 673d 6eb6 eabd 411d 263d
000003c0: 8f47 633e 26a5 3abd 4d0c 8c3e a786 1ebd
000003d0: 4b00 85bd cfee 5e3e 7ca9 69bd 6ff4 0ebe
000003e0: e643 b93d 0bf5 7dbd decc 0abc b014 d8bc
000003f0: 9748 05be 6630 febd fc0e 51be 6c2a d53c
0.1897237 -0.2395964 -0.08824569 0.1163143 -0.046550147 0.25893804 -0.0654368 -0.24325627
-0.120525226 -0.10545321 0.19536392 -0.18197048 -0.11752787 -0.26443535 0.029169736 0.11086791
-0.17691411 0.21412717 0.37461033 0.027544767 0.17961174 0.33211482 0.29711065 0.036541764
-0.2866383 0.15043604 -0.1813517 -0.1144029 -0.37678272 0.25359932 -0.14244811 -0.34298462
-0.016104324 -0.008328813 -0.046922684 0.15968992 -0.0118337525 0.08156197 0.286191 0.12218682
0.15995575 -0.032822598 0.09412286 -0.14429061 0.25764844 -0.22447555 -0.088252366 -0.23985244
0.11235615 0.04558363 0.011795566 0.1993244 -0.017143862 0.21005552 -0.21409136 0.13944933
0.20361865 0.004512126 -0.10827849 -0.005082906 0.07499134 0.09761149 -0.043901492 0.10070211
-0.1732848 0.07990081 0.12553944 -0.0390987 -0.021531653 -0.10738704 0.12240302 -0.08683746
-0.14567547 0.29986653 -0.16910563 0.082025014 0.048008386 0.25969285 -0.027370285 0.26994312
-0.026242169 0.0629393 0.1792981 -0.09753983 -0.174718 0.4504661 0.13045833 -0.0161214
0.08840487 -0.20186423 -0.10402694 0.259262 0.050630998 -0.1759732 0.1906722 0.10662413
-0.18456927 0.07769909 0.09008779 0.09394835 -0.22042271 -0.062277064 -0.20935027 -0.11581178
-0.14270484 0.02211742 -0.025350515 0.080512226 -0.076220505 0.21308933 0.028414538 -0.18915595
-0.2767117 -0.20762034 -0.019827154 -0.0032046856 -0.35152358 -0.034590058 0.3172099 -0.3625331
-0.10359085 0.1923718 -0.060253587 -0.13444416 -0.15713315 0.054184254 0.11199644 0.012144385
-0.16582094 0.16591169 0.048223052 -0.11991909 -0.10457235 0.21579877 0.056640334 0.12734498
-0.118914194 0.22933382 -0.06731432 -0.16495197 0.032925103 -0.03773025 0.05567066 -0.12909588
-0.29042342 -0.08406127 -0.01084189 -0.24804346 0.25917923 0.19714148 -0.14486107 -0.12577651
-0.34138986 0.1264317 -0.17487252 0.3854587 -0.23914601 0.11166536 -0.1730038 -0.115085244
-0.23800439 0.04469859 -0.23308857 0.15158711 -0.0028114752 -0.14954917 -0.12060818 0.098575376
0.36450714 -0.0018756592 -0.08769114 0.016409533 0.058367763 0.17561719 -0.080585085 0.10055296
0.0812859 -0.04838643 -0.034965828 -0.15415505 0.24247038 0.034110215 -0.016118493 0.026013376
-0.1059705 0.44702443 -0.25673664 -0.09186645 -0.17199 0.19030932 0.058784936 -0.049628977
-0.16262093 -0.11534691 0.15501904 -0.02314601 0.38698596 0.06256485 -0.10815684 0.016953155
-0.17665403 -0.2160065 -0.2813714 -0.024128996 0.101811446 0.10059859 0.20216328 -0.18200746
-0.19054788 -0.0158315 -0.01575901 0.28979212 -0.36399263 -0.045287337 0.1373205 -0.21737781
-0.046851035 0.107846744 0.0127689885 0.3116872 -0.21818906 -0.116089575 0.07941628 -0.08251777
-0.115287334 0.086803265 -0.18449678 0.15525457 0.32256946 -0.24830002 -0.0593095 0.38281387
-0.2513629 0.0046449592 -0.34345073 0.13743289 -0.07426032 0.05655788 -0.11460577 0.040555242
0.22195266 -0.045567654 0.27353135 -0.038702633 -0.064941965 0.21770786 -0.0570464 -0.13960432
0.09046154 -0.06200127 -0.008471696 -0.026377052 -0.13015972 -0.12411575 -0.20415872 0.026021205

linear2.weight f4 [3, 256]
00000000: 3b62 a5bc b587 3ebe 9b2e 36be e613 133d
00000010: 714a 133e 2c5d 3e3e d790 7abe c791 fbbe
00000020: ece9 fa3d 2523 193d 7e98 e2bc dbff d4bd
00000030: eb9b 8dbe fe42 1bbe e448 b53e 9c4e 39bc
00000040: 041c 6e3c 5626 ccbe 907a 543e b39d 973d
00000050: c12f 8e3e 5026 493e ac3d c53c f630 99bd
00000060: f363 a5be 3d53 80bd 56a3 973c 907b c5be
00000070: f77c 96bd c570 c33d b7b2 75be dbe1 05bd
00000080: 6837 05be f37d 733e 7c78 11be c65a 6c3d
00000090: 4b5d 65be 61d0 23bd e051 763d 5599 cb3e
000000a0: 3903 213d 2708 3c3e 8f11 e0bd 619d 5abe
000000b0: 8fdc 2c3e 5b84 d6bd f8ca 98be b188 8ebe
000000c0: 0a7d 643e 5633 40bc adf6 97be 59b5 343e
000000d0: 49a3 62bd 0d6c 993e 6f41 44be 9ee4 31be
000000e0: 6ff7 0e3f 2924 8b3e 9311 59be 8c0d 05be
000000f0: 858c a13d 8961 823e 8fa5 0bbc e52e 04be
00000100: a6c8 e13c a861 2c3b 1e9b a0bd 5f82 f5bd
00000110: 4124 9bbe b9c6 f0be f94b 4e3e 29fa 67be
00000120: 5e62 31be 9868 283e e5bb 26be ad7d 1e3d
00000130: 6da3 29be e1b4 8b3d 14be cb3d cd86 ab3e
00000140: 1c3c 9bbd 7a3c 7c3d 853e 5bbb 3c3c 8a3e
00000150: a185 913e 748e 9c3e 9769 623e 4a5e 91bd
00000160: eb08 92be 50ae 1fbe 7a6f 10be 7b19 fc3d
00000170: b698 3cbe 4edc 45be 5603 dc3b 0d69 ffbd
00000180: cf01 5cbe f30c 4fbc 5f1a a8bd 1f2c 25bd
00000190: c93d d0be 42a2 aebe 412c 1dbd 65db ebbd
000001a0: adc2 f9bd 3b53 8f3e c9d3 d5bd 2559 41bd
000001b0: 6507 243e a128 d53d cdbb 7e3e e1db 8cbe
000001c0: 5905 c63b a405 13be 9429 e6bc cd8d 2bbe
000001d0: 856e 0fbe 210e 9ebd d3f4 f73d 1a8d 16be
000001e0: 1475 833e 4ba5 d6bd c134 003c 1160 e1be
000001f0: ef38 543e a1aa 5d3e c068 82bd e7af 903e
00000200: 97aa ac3e a9cc 113e af7b f33c 6750 26be
00000210: f2bd 18bd cd0b 873e 3e97 3fbe 5672 693d
00000220: e265 35be 2d53 993e 7247 52be b2eb 04be
00000230: 4a64 32be 0a7a 383e aef0 a0b9 4af5 c0be
00000240: a959 6cbb c76d a4be c25f 813e 021c d3bd
00000250: 07f2 7e3e 8158 183e 3ec4 cebe 96dc 4abe
00000260: 1fdb 84be 9e5a 26be 0f49 71be 6816 5e3e
00000270: 7c48 54be 1ffd f4bd 1697 9dbe 548b f3be
00000280: 0267 ecbd b3d4 cebd f006 f7bc 2955 5cbd
00000290: 6e31 87bd f70e d0be b977 b9be 6452 9ebd
000002a0: 571a 713e 16af 46be 4638 97be 927a 8ebd
000002b0: a4a5 95bd 5092 873d e47d ce3d f22f cd3d
000002c0: 2c76 ca3e bf93 b2be 6355 5ebe d161 333e
000002d0: 5438 7c3e 5a2a 3bbd dfb6 6bbd 8ce4 863e
000002e0: e8a9 d6bc d852 6e3e 446c 833c 34be c8bd
000002f0: 3ff1 103d 0e61 4d3e f1ad 08be 39db 88be
00000300: 5b74 38bd d549 a6bc 2b20 8e3e cb0f 1cbd
00000310: 1065 763e 60b6 acbd cda1 d4bd 8227 b83e
00000320: 1fbe d03c 0465 4ebd 3348 6b3d 1f79 d83c
00000330: 4079 6dbe ea2c 683e a827 3b3d b3ac b53d
00000340: 59d8 f2bd 476e 67be 623f 5b3d 4bec 793e
00000350: c64c 95bc 26a2 35bd e999 693d fec3 003d
00000360: 6907 4dbe deca 513e 7d7f ab3e 0d9c 983d
00000370: 7e12 85bd 0221 7cbd d334 c4bd 7b8a 03be
00000380: ecf3 693e aa37 f3be 8cb9 02bf 4402 6bbc
00000390: 3cc1 ac3e c30e 43be 91cf 78bd 21f6 883e
000003a0: 8156 18bf a8f2 463e af51 27be 29ee 033e
000003b0: 913d b3bd 1133 7cbd 2e0c 74be c428 b5bd
000003c0: 3844 553d 5f11 b1bd 4872 7b3e 47c9 00bd
000003d0: 78ad 5dbe 48a6 ea3d bbea 51bd e3dd abbd
000003e0: 15e8 eabb f5e5 a0bd 62d5 febe 3c6a 9abe
000003f0: 6463 503c b4e5 033e 9dcf 843e 4ac3 69bd
-0.020188442 -0.18606456 -0.17791216 0.03590765 0.14383866 0.1859023 -0.24469315 -0.49134657
0.12251648 0.037387032 -0.027660605 -0.10400363 -0.27658018 -0.15162274 0.35407174 -0.011310246
0.014533047 -0.39872998 0.20749879 0.074031256 0.27770808 0.19643521 0.024077259 -0.07480042
-0.32302818 -0.062658764 0.018510502 -0.38570833 -0.07348054 0.095429935 -0.23993956 -0.032686096
-0.13009417 0.23778515 -0.14206117 0.057703756 -0.2239887 -0.039993647 0.060136676 0.3976542
0.039309714 0.18362485 -0.10940849 -0.21349098 0.16881011 -0.104744636 -0.29842353 -0.27838662
0.22313324 -0.011730989 -0.29680386 0.17647304 -0.055331502 0.2996525 -0.19165586 -0.17372367
0.55846304 0.27176026 -0.2119811 -0.12993449 0.0788813 0.25465038 -0.008523359 -0.12908514
0.027561497 0.0026303325 -0.07842086 -0.11987757 -0.30301097 -0.47026613 0.20146169 -0.22654022
-0.1732268 0.1644615 -0.16282614 0.038694073 -0.16566248 0.06821609 0.09948364 0.33501282
-0.07579824 0.061581112 -0.0033454013 0.2699908 0.28422263 0.30577433 0.22110592 -0.07098062
-0.2852243 -0.15593839 -0.14105025 0.123095475 -0.1841763 -0.19322321 0.006714265 -0.12471209
-0.21485065 -0.012637365 -0.08208155 -0.04032528 -0.40672138 -0.34108168 -0.038372282 -0.115164556
-0.121953346 0.27993187 -0.104407854 -0.047204155 0.16018446 0.1040814 0.24876328 -0.27511504
0.006043118 -0.1435762 -0.028095998 -0.16753311 -0.14007004 -0.077175386 0.121072434 -0.14702263
0.2567526 -0.10480746 0.0078250775 -0.44018605 0.20724843 0.21647121 -0.06367636 0.28259203
0.337239 0.14238228 0.029722063 -0.16241609 -0.03729052 0.2637619 -0.18710038 0.056993805
-0.17714646 0.2994627 -0.20535067 -0.12980536 -0.1742107 0.18015304 -0.00030696898 -0.3768714
-0.0036064184 -0.32115003 0.2526837 -0.103080764 0.24897014 0.14877512 -0.40384096 -0.1981071
-0.25948426 -0.16245505 -0.23563026 0.21688235 -0.20730776 -0.119623415 -0.30779332 -0.47567236
-0.11543085 -0.10099163 -0.030154675 -0.053792153 -0.06601225 -0.40636417 -0.36224154 -0.077305585
0.23545204 -0.19402727 -0.2953512 -0.06956972 -0.07306984 0.06619704 0.100826055 0.100189105
0.39543283 -0.34878346 -0.2171226 0.17517783 0.24630862 -0.045694686 -0.057547446 0.26346242
-0.026204064 0.2327379 0.016042836 -0.09801903 0.03538632 0.20056555 -0.13347603 -0.26729754
-0.04503284 -0.020298878 0.27758917 -0.038101 0.2406199 -0.08433223 -0.103824235 0.35967642
0.025481282 -0.050389305 0.0574419 0.026424943 -0.23190784 0.22673383 0.045692116 0.088708304
-0.11857671 -0.22600661 0.053527243 0.24406545 -0.018225085 -0.04434409 0.057031546 0.031436913
-0.20022358 0.20487544 0.33495703 0.07451639 -0.06497668 -0.061554916 -0.09580388 -0.12845795
0.22846955 -0.47503406 -0.5106437 -0.014343802 0.33741176 -0.190486 -0.060744826 0.2675028
-0.59506994 0.19428504 -0.16339754 0.1288382 -0.08751977 -0.06157214 -0.23832771 -0.08845666
0.05206701 -0.086458914 0.24555314 -0.031441953 -0.21648204 0.11457497 -0.051249247 -0.08391931
-0.0071687796 -0.07856361 -0.49772173 -0.30159175 0.012719009 0.12880594 0.25939646 -0.057071008

linear2.bias f4 [3]
00000000: 4ea9 f43d 2970 babd 82fa 87bd
0.11946355 -0.09103424 -0.066395774
